…
   4104192/5589312 [=====================>........] - ETA: 0s    4907008/5589312 [=========================>....] - ETA: 0s    5589312/5589312 [==============================] - 2s 0us/step
    Download complete.
    Model: "sequential_2"
    _________________________________________________________________
     Layer (type)                Output Shape              Param #   
    =================================================================
     rescaling (Rescaling)       (None, 224, 224, 3)       0         
                                                                 
     conv_0 (QuantizedConv2D)    (None, 112, 112, 16)      448       
                                                                 
     conv_0/relu (QuantizedReLU  (None, 112, 112, 16)      0         
     )                                                               
                                                                 
     conv_1 (QuantizedConv2D)    (None, 112, 112, 32)      4640      
                                                                 
     conv_1/relu (QuantizedReLU  (None, 112, 112, 32)      0         
     )                                                               
                                                                 
     conv_2 (QuantizedConv2D)    (None, 56, 56, 64)        18496     
                                                                 
     conv_2/relu (QuantizedReLU  (None, 56, 56, 64)        0         
     )                                                               
                                                                 
     conv_3 (QuantizedConv2D)    (None, 56, 56, 64)        36928     
                                                                 
     conv_3/relu (QuantizedReLU  (None, 56, 56, 64)        0         
     )                                                               
                                                                 
     separable_4 (QuantizedSepa  (None, 28, 28, 128)       8896      
     rableConv2D)                                                    
                                                                 
     separable_4/relu (Quantize  (None, 28, 28, 128)       0         
     dReLU)                                                          
                                                                 
     separable_5 (QuantizedSepa  (None, 28, 28, 128)       17664     
     rableConv2D)                                                    
                                                                 
     separable_5/relu (Quantize  (None, 28, 28, 128)       0         
     dReLU)                                                          
                                                                 
     separable_6 (QuantizedSepa  (None, 14, 14, 256)       34176     
     rableConv2D)                                                    
                                                                 
     separable_6/relu (Quantize  (None, 14, 14, 256)       0         
     dReLU)                                                          
                                                                 
     separable_7 (QuantizedSepa  (None, 14, 14, 256)       68096     
     rableConv2D)                                                    
                                                                 
     separable_7/relu (Quantize  (None, 14, 14, 256)       0         
     dReLU)                                                          
                                                                 
     separable_8 (QuantizedSepa  (None, 14, 14, 256)       68096     
     rableConv2D)                                                    
                                                                 
     separable_8/relu (Quantize  (None, 14, 14, 256)       0         
     dReLU)                                                          
                                                                 
     separable_9 (QuantizedSepa  (None, 14, 14, 256)       68096     
     rableConv2D)                                                    
                                                                 
     separable_9/relu (Quantize  (None, 14, 14, 256)       0         
     dReLU)                                                          
                                                                 
     separable_10 (QuantizedSep  (None, 14, 14, 256)       68096     
     arableConv2D)                                                   
                                                                 
     separable_10/relu (Quantiz  (None, 14, 14, 256)       0         
     edReLU)                                                         
                                                                 
     separable_11 (QuantizedSep  (None, 14, 14, 256)       68096     
     arableConv2D)                                                   
                                                                 
     separable_11/relu (Quantiz  (None, 14, 14, 256)       0         
     edReLU)                                                         
                                                                 
     separable_12 (QuantizedSep  (None, 7, 7, 512)         133888    
     arableConv2D)                                                   
                                                                 
     separable_12/relu (Quantiz  (None, 7, 7, 512)         0         
     edReLU)                                                         
                                                                 
     separable_13 (QuantizedSep  (None, 7, 7, 512)         267264    
     arableConv2D)                                                   
                                                                 
     separable_13/global_avg (G  (None, 512)               0         
     lobalAveragePooling2D)                                          
                                                                 
     separable_13/relu (Quantiz  (None, 512)               0         
     edReLU)                                                         
                                                                 
     dropout (Dropout)           (None, 512)               0         
                                                                 
     classifier (QuantizedDense  (None, 1000)              513000    
     )                                                               
                                                                 
    =================================================================
    Total params: 1375880 (5.25 MB)
    Trainable params: 1375880 (5.25 MB)
    Non-trainable params: 0 (0.00 Byte)
    _________________________________________________________________




…
    _________________________

               External Memory Summary            
    ______________________________________________
    Layer (type)         External Memory (Bytes)
    ==============================================
    classifier (Fully.)  400000                 
    ______________________________________________

    _________________________________________________________________________
    Layer (type)              Output shape    Kernel shape       Components

    ========= HW/conv_0-classifier (Hardware) - size: 1361268 bytes =========

    conv_0 (InputConv.)       [112, 112, 16]  (3, 3, 3, 16)      1 HRC     
    _________________________________________________________________________
    conv_1 (Conv.)            [112, 112, 32]  (3, 3, 16, 32)     4 CNP1    
    _________________________________________________________________________
    conv_2 (Conv.)            [56, 56, 64]    (3, 3, 32, 64)     6 CNP1    
    _________________________________________________________________________
    conv_3 (Conv.)            [56, 56, 64]    (3, 3, 64, 64)     3 CNP1    
    _________________________________________________________________________
    separable_4 (Sep.Conv.)   [28, 28, 128]   (3, 3, 64, 1)      6 CNP1    
    _________________________________________________________________________
                                              (1, 1, 64, 128)              
    _________________________________________________________________________
    separable_5 (Sep.Conv.)   [28, 28, 128]   (3, 3, 128, 1)     4 CNP1    
    _________________________________________________________________________
                                              (1, 1, 128, 128)             
    _________________________________________________________________________
    separable_6 (Sep.Conv.)   [14, 14, 256]   (3, 3, 128, 1)     8 CNP1    
    _________________________________________________________________________
                                              (1, 1, 128, 256)             
    _________________________________________________________________________
    separable_7 (Sep.Conv.)   [14, 14, 256]   (3, 3, 256, 1)     4 CNP1    
    _________________________________________________________________________
                                              (1, 1, 256, 256)             
    _________________________________________________________________________
    separable_8 (Sep.Conv.)   [14, 14, 256]   (3, 3, 256, 1)     4 CNP1    
    _________________________________________________________________________
                                              (1, 1, 256, 256)             
    _________________________________________________________________________
    separable_9 (Sep.Conv.)   [14, 14, 256]   (3, 3, 256, 1)     4 CNP1    
    _________________________________________________________________________
                                              (1, 1, 256, 256)             
    _________________________________________________________________________
    separable_10 (Sep.Conv.)  [14, 14, 256]   (3, 3, 256, 1)     4 CNP1    
    _________________________________________________________________________
                                              (1, 1, 256, 256)             
    _________________________________________________________________________
    separable_11 (Sep.Conv.)  [14, 14, 256]   (3, 3, 256, 1)     4 CNP1    
    _________________________________________________________________________
                                              (1, 1, 256, 256)             
    _________________________________________________________________________
    separable_12 (Sep.Conv.)  [7, 7, 512]     (3, 3, 256, 1)     8 CNP1    
    _________________________________________________________________________
                                              (1, 1, 256, 512)             
    _________________________________________________________________________
    separable_13 (Sep.Conv.)  [1, 1, 512]     (3, 3, 512, 1)     8 CNP1    
    _________________________________________________________________________
                                              (1, 1, 512, 512)             
    _________________________________________________________________________
    classifier (Fully.)       [1, 1, 1000]    (1, 1, 512, 1000)  1 FNP2    
    _________________________________________________________________________




.. GENERATED FROM PYTHON SOURCE LINES 291-297

4.2. Performance measurement
^^^^^^^^^^^^^^^^^^^^^^^^^^^^

Power measurement must be enabled on the device' soc (disabled by default).
After sending data for inference, performance measurements are available in
the `model statistics <../../api_reference/akida_apis.html#akida.Model.statistics>`__.
…
