…
         0/172776 [..............................] - ETA: 0s     32768/172776 [====>.........................] - ETA: 0s     90112/172776 [==============>...............] - ETA: 0s    172776/172776 [==============================] - 0s 2us/step
    Download complete.
    Model: "ds_cnn_kws"
    _________________________________________________________________
     Layer (type)                Output Shape              Param #   
    =================================================================
     input (InputLayer)          [(None, 49, 10, 1)]       0         
                                                                 
     rescaling (Rescaling)       (None, 49, 10, 1)         0         
                                                                 
     conv_0 (Conv2D)             (None, 25, 5, 64)         1600      
                                                                 
     conv_0/BN (BatchNormalizat  (None, 25, 5, 64)         256       
     ion)                                                            
                                                                 
     conv_0/relu (ReLU)          (None, 25, 5, 64)         0         
                                                                 
     dw_separable_1 (DepthwiseC  (None, 25, 5, 64)         576       
     onv2D)                                                          
                                                                 
     pw_separable_1 (Conv2D)     (None, 25, 5, 64)         4096      
                                                                 
     pw_separable_1/BN (BatchNo  (None, 25, 5, 64)         256       
     rmalization)                                                    
                                                                 
     pw_separable_1/relu (ReLU)  (None, 25, 5, 64)         0         
                                                                 
     dw_separable_2 (DepthwiseC  (None, 25, 5, 64)         576       
     onv2D)                                                          
                                                                 
     pw_separable_2 (Conv2D)     (None, 25, 5, 64)         4096      
                                                                 
     pw_separable_2/BN (BatchNo  (None, 25, 5, 64)         256       
     rmalization)                                                    
                                                                 
     pw_separable_2/relu (ReLU)  (None, 25, 5, 64)         0         
                                                                 
     dw_separable_3 (DepthwiseC  (None, 25, 5, 64)         576       
     onv2D)                                                          
                                                                 
     pw_separable_3 (Conv2D)     (None, 25, 5, 64)         4096      
                                                                 
     pw_separable_3/BN (BatchNo  (None, 25, 5, 64)         256       
     rmalization)                                                    
                                                                 
     pw_separable_3/relu (ReLU)  (None, 25, 5, 64)         0         
                                                                 
     dw_separable_4 (DepthwiseC  (None, 25, 5, 64)         576       
     onv2D)                                                          
                                                                 
     pw_separable_4 (Conv2D)     (None, 25, 5, 64)         4096      
                                                                 
     pw_separable_4/BN (BatchNo  (None, 25, 5, 64)         256       
     rmalization)                                                    
                                                                 
     pw_separable_4/relu (ReLU)  (None, 25, 5, 64)         0         
                                                                 
     pw_separable_4/global_avg   (None, 64)                0         
     (GlobalAveragePooling2D)                                        
                                                                 
     dense_5 (Dense)             (None, 33)                2145      
                                                                 
     act_softmax (Activation)    (None, 33)                0         
                                                                 
    =================================================================
    Total params: 23713 (92.63 KB)
    Trainable params: 23073 (90.13 KB)
    Non-trainable params: 640 (2.50 KB)
    _________________________________________________________________




.. GENERATED FROM PYTHON SOURCE LINES 77-89

.. code-block:: Python
…
         0/177520 [..............................] - ETA: 0s     98304/177520 [===============>..............] - ETA: 0s    177520/177520 [==============================] - 0s 0us/step
    Download complete.
    Model: "ds_cnn_kws"
    _________________________________________________________________
     Layer (type)                Output Shape              Param #   
    =================================================================
     input (InputLayer)          [(None, 49, 10, 1)]       0         
                                                                 
     rescaling (QuantizedRescal  (None, 49, 10, 1)         0         
     ing)                                                            
                                                                 
     conv_0 (QuantizedConv2D)    (None, 25, 5, 64)         1664      
                                                                 
     conv_0/relu (QuantizedReLU  (None, 25, 5, 64)         128       
     )                                                               
                                                                 
     dw_separable_1 (QuantizedD  (None, 25, 5, 64)         704       
     epthwiseConv2D)                                                 
                                                                 
     pw_separable_1 (QuantizedC  (None, 25, 5, 64)         4160      
     onv2D)                                                          
                                                                 
     pw_separable_1/relu (Quant  (None, 25, 5, 64)         128       
     izedReLU)                                                       
                                                                 
     dw_separable_2 (QuantizedD  (None, 25, 5, 64)         704       
     epthwiseConv2D)                                                 
                                                                 
     pw_separable_2 (QuantizedC  (None, 25, 5, 64)         4160      
     onv2D)                                                          
                                                                 
     pw_separable_2/relu (Quant  (None, 25, 5, 64)         128       
     izedReLU)                                                       
                                                                 
     dw_separable_3 (QuantizedD  (None, 25, 5, 64)         704       
     epthwiseConv2D)                                                 
                                                                 
     pw_separable_3 (QuantizedC  (None, 25, 5, 64)         4160      
     onv2D)                                                          
                                                                 
     pw_separable_3/relu (Quant  (None, 25, 5, 64)         128       
     izedReLU)                                                       
                                                                 
     dw_separable_4 (QuantizedD  (None, 25, 5, 64)         704       
     epthwiseConv2D)                                                 
                                                                 
     pw_separable_4 (QuantizedC  (None, 25, 5, 64)         4160      
     onv2D)                                                          
                                                                 
     pw_separable_4/relu (Quant  (None, 25, 5, 64)         0         
     izedReLU)                                                       
                                                                 
     pw_separable_4/global_avg   (None, 64)                2         
     (QuantizedGlobalAveragePoo                                      
     ling2D)                                                         
                                                                 
     dense_5 (QuantizedDense)    (None, 33)                2145      
                                                                 
     dense_5/dequantizer (Dequa  (None, 33)                0         
     ntizer)                                                         
                                                                 
     act_softmax (Activation)    (None, 33)                0         
                                                                 
    =================================================================
    Total params: 23779 (92.89 KB)
    Trainable params: 22753 (88.88 KB)
    Non-trainable params: 1026 (4.01 KB)
    _________________________________________________________________
      1/308 [..............................] - ETA: 12:34
…
