…
01976 [========================>.....] - ETA: 0s    4501976/4501976 [==============================] - 0s 0us/step
    Download complete.
    Model: "akida_unet"
    _________________________________________________________________
     Layer (type)                Output Shape              Param #   
    =================================================================
     input (InputLayer)          [(None, 128, 128, 3)]     0         
                                                                 
     rescaling (Rescaling)       (None, 128, 128, 3)       0         
                                                                 
     conv_0 (Conv2D)             (None, 64, 64, 16)        432       
                                                                 
     conv_0/BN (BatchNormalizat  (None, 64, 64, 16)        64        
     ion)                                                            
                                                                 
     conv_0/relu (ReLU)          (None, 64, 64, 16)        0         
                                                                 
     conv_1 (Conv2D)             (None, 64, 64, 32)        4608      
                                                                 
     conv_1/BN (BatchNormalizat  (None, 64, 64, 32)        128       
     ion)                                                            
                                                                 
     conv_1/relu (ReLU)          (None, 64, 64, 32)        0         
                                                                 
     conv_2 (Conv2D)             (None, 32, 32, 64)        18432     
                                                                 
     conv_2/BN (BatchNormalizat  (None, 32, 32, 64)        256       
     ion)                                                            
                                                                 
     conv_2/relu (ReLU)          (None, 32, 32, 64)        0         
                                                                 
     conv_3 (Conv2D)             (None, 32, 32, 64)        36864     
                                                                 
     conv_3/BN (BatchNormalizat  (None, 32, 32, 64)        256       
     ion)                                                            
                                                                 
     conv_3/relu (ReLU)          (None, 32, 32, 64)        0         
                                                                 
     dw_separable_4 (DepthwiseC  (None, 16, 16, 64)        576       
     onv2D)                                                          
                                                                 
     pw_separable_4 (Conv2D)     (None, 16, 16, 128)       8192      
                                                                 
     pw_separable_4/BN (BatchNo  (None, 16, 16, 128)       512       
     rmalization)                                                    
                                                                 
     pw_separable_4/relu (ReLU)  (None, 16, 16, 128)       0         
                                                                 
     dw_separable_5 (DepthwiseC  (None, 16, 16, 128)       1152      
     onv2D)                                                          
                                                                 
     pw_separable_5 (Conv2D)     (None, 16, 16, 128)       16384     
                                                                 
     pw_separable_5/BN (BatchNo  (None, 16, 16, 128)       512       
     rmalization)                                                    
                                                                 
     pw_separable_5/relu (ReLU)  (None, 16, 16, 128)       0         
                                                                 
     dw_separable_6 (DepthwiseC  (None, 8, 8, 128)         1152      
     onv2D)                                                          
                                                                 
     pw_separable_6 (Conv2D)     (None, 8, 8, 256)         32768     
                                                                 
     pw_separable_6/BN (BatchNo  (None, 8, 8, 256)         1024      
     rmalization)                                                    
                                                                 
     pw_separable_6/relu (ReLU)  (None, 8, 8, 256)         0         
                                                                 
     dw_separable_7 (DepthwiseC  (None, 8, 8, 256)         2304      
     onv2D)                                                          
                                                                 
     pw_separable_7 (Conv2D)     (None, 8, 8, 256)         65536     
                                                                 
     pw_separable_7/BN (BatchNo  (None, 8, 8, 256)         1024      
     rmalization)                                                    
                                                                 
     pw_separable_7/relu (ReLU)  (None, 8, 8, 256)         0         
                                                                 
     dw_separable_8 (DepthwiseC  (None, 8, 8, 256)         2304      
     onv2D)                                                          
                                                                 
     pw_separable_8 (Conv2D)     (None, 8, 8, 256)         65536     
                                                                 
     pw_separable_8/BN (BatchNo  (None, 8, 8, 256)         1024      
     rmalization)                                                    
                                                                 
     pw_separable_8/relu (ReLU)  (None, 8, 8, 256)         0         
                                                                 
     dw_separable_9 (DepthwiseC  (None, 8, 8, 256)         2304      
     onv2D)                                                          
                                                                 
     pw_separable_9 (Conv2D)     (None, 8, 8, 256)         65536     
                                                                 
     pw_separable_9/BN (BatchNo  (None, 8, 8, 256)         1024      
     rmalization)                                                    
                                                                 
     pw_separable_9/relu (ReLU)  (None, 8, 8, 256)         0         
                                                                 
     dw_separable_10 (Depthwise  (None, 8, 8, 256)         2304      
     Conv2D)                                                         
                                                                 
     pw_separable_10 (Conv2D)    (None, 8, 8, 256)         65536     
                                                                 
     pw_separable_10/BN (BatchN  (None, 8, 8, 256)         1024      
     ormalization)                                                   
                                                                 
     pw_separable_10/relu (ReLU  (None, 8, 8, 256)         0         
     )                                                               
                                                                 
     dw_separable_11 (Depthwise  (None, 8, 8, 256)         2304      
     Conv2D)                                                         
                                                                 
     pw_separable_11 (Conv2D)    (None, 8, 8, 256)         65536     
                                                                 
     pw_separable_11/BN (BatchN  (None, 8, 8, 256)         1024      
     ormalization)                                                   
                                                                 
     pw_separable_11/relu (ReLU  (None, 8, 8, 256)         0         
     )                                                               
                                                                 
     dw_separable_12 (Depthwise  (None, 4, 4, 256)         2304      
     Conv2D)                                                         
                                                                 
     pw_separable_12 (Conv2D)    (None, 4, 4, 512)         131072    
                                                                 
     pw_separable_12/BN (BatchN  (None, 4, 4, 512)         2048      
     ormalization)                                                   
                                                                 
     pw_separable_12/relu (ReLU  (None, 4, 4, 512)         0         
     )                                                               
                                                                 
     dw_separable_13 (Depthwise  (None, 4, 4, 512)         4608      
     Conv2D)                                                         
                                                                 
     pw_separable_13 (Conv2D)    (None, 4, 4, 512)         262144    
                                                                 
     pw_separable_13/BN (BatchN  (None, 4, 4, 512)         2048      
     ormalization)                                                   
                                                                 
     pw_separable_13/relu (ReLU  (None, 4, 4, 512)         0         
     )                                                               
                                                                 
     dw_sepconv_t_0 (DepthwiseC  (None, 8, 8, 512)         5120      
     onv2DTranspose)                                                 
                                                                 
     pw_sepconv_t_0 (Conv2D)     (None, 8, 8, 256)         131328    
                                                                 
     pw_sepconv_t_0/BN (BatchNo  (None, 8, 8, 256)         1024      
     rmalization)                                                    
                                                                 
     pw_sepconv_t_0/relu (ReLU)  (None, 8, 8, 256)         0         
                                                                 
     dropout (Dropout)           (None, 8, 8, 256)         0         
                                                                 
     dw_sepconv_t_1 (DepthwiseC  (None, 16, 16, 256)       2560      
     onv2DTranspose)                                                 
                                                                 
     pw_sepconv_t_1 (Conv2D)     (None, 16, 16, 128)       32896     
                                                                 
     pw_sepconv_t_1/BN (BatchNo  (None, 16, 16, 128)       512       
     rmalization)                                                    
                                                                 
     pw_sepconv_t_1/relu (ReLU)  (None, 16, 16, 128)       0         
                                                                 
     dropout_1 (Dropout)         (None, 16, 16, 128)       0         
                                                                 
     dw_sepconv_t_2 (DepthwiseC  (None, 32, 32, 128)       1280      
     onv2DTranspose)                                                 
                                                                 
     pw_sepconv_t_2 (Conv2D)     (None, 32, 32, 64)        8256      
                                                                 
     pw_sepconv_t_2/BN (BatchNo  (None, 32, 32, 64)        256       
     rmalization)                                                    
                                                                 
     pw_sepconv_t_2/relu (ReLU)  (None, 32, 32, 64)        0         
                                                                 
     dropout_2 (Dropout)         (None, 32, 32, 64)        0         
                                                                 
     dw_sepconv_t_3 (DepthwiseC  (None, 64, 64, 64)        640       
     onv2DTranspose)                                                 
                                                                 
     pw_sepconv_t_3 (Conv2D)     (None, 64, 64, 32)        2080      
                                                                 
     pw_sepconv_t_3/BN (BatchNo  (None, 64, 64, 32)        128       
     rmalization)                                                    
                                                                 
     pw_sepconv_t_3/relu (ReLU)  (None, 64, 64, 32)        0         
                                                                 
     dropout_3 (Dropout)         (None, 64, 64, 32)        0         
                                                                 
     dw_sepconv_t_4 (DepthwiseC  (None, 128, 128, 32)      320       
     onv2DTranspose)                                                 
                                                                 
     pw_sepconv_t_4 (Conv2D)     (None, 128, 128, 16)      528       
                                                                 
     pw_sepconv_t_4/BN (BatchNo  (None, 128, 128, 16)      64        
     rmalization)                                                    
                                                                 
     pw_sepconv_t_4/relu (ReLU)  (None, 128, 128, 16)      0         
                                                                 
     dropout_4 (Dropout)         (None, 128, 128, 16)      0         
                                                                 
     head (Conv2D)               (None, 128, 128, 1)       17        
                                                                 
    =================================================================
    Total params: 1058865 (4.04 MB)
    Trainable params: 1051889 (4.01 MB)
    Non-trainable params: 6976 (27.25 KB)
    _________________________________________________________________




.. GENERATED FROM PYTHON SOURCE LINES 90-101

.. code-block:: Python
…
27816 [==================>...........] - ETA: 0s    4527816/4527816 [==============================] - 0s 0us/step
    Download complete.
    Model: "akida_unet"
    _________________________________________________________________
     Layer (type)                Output Shape              Param #   
    =================================================================
     input (InputLayer)          [(None, 128, 128, 3)]     0         
                                                                 
     rescaling (QuantizedRescal  (None, 128, 128, 3)       0         
     ing)                                                            
                                                                 
     conv_0 (QuantizedConv2D)    (None, 64, 64, 16)        448       
                                                                 
     conv_0/relu (QuantizedReLU  (None, 64, 64, 16)        32        
     )                                                               
                                                                 
     conv_1 (QuantizedConv2D)    (None, 64, 64, 32)        4640      
                                                                 
     conv_1/relu (QuantizedReLU  (None, 64, 64, 32)        64        
     )                                                               
                                                                 
     conv_2 (QuantizedConv2D)    (None, 32, 32, 64)        18496     
                                                                 
     conv_2/relu (QuantizedReLU  (None, 32, 32, 64)        128       
     )                                                               
                                                                 
     conv_3 (QuantizedConv2D)    (None, 32, 32, 64)        36928     
                                                                 
     conv_3/relu (QuantizedReLU  (None, 32, 32, 64)        128       
     )                                                               
                                                                 
     dw_separable_4 (QuantizedD  (None, 16, 16, 64)        704       
     epthwiseConv2D)                                                 
                                                                 
     pw_separable_4 (QuantizedC  (None, 16, 16, 128)       8320      
     onv2D)                                                          
                                                                 
     pw_separable_4/relu (Quant  (None, 16, 16, 128)       256       
     izedReLU)                                                       
                                                                 
     dw_separable_5 (QuantizedD  (None, 16, 16, 128)       1408      
     epthwiseConv2D)                                                 
                                                                 
     pw_separable_5 (QuantizedC  (None, 16, 16, 128)       16512     
     onv2D)                                                          
                                                                 
     pw_separable_5/relu (Quant  (None, 16, 16, 128)       256       
     izedReLU)                                                       
                                                                 
     dw_separable_6 (QuantizedD  (None, 8, 8, 128)         1408      
     epthwiseConv2D)                                                 
                                                                 
     pw_separable_6 (QuantizedC  (None, 8, 8, 256)         33024     
     onv2D)                                                          
                                                                 
     pw_separable_6/relu (Quant  (None, 8, 8, 256)         512       
     izedReLU)                                                       
                                                                 
     dw_separable_7 (QuantizedD  (None, 8, 8, 256)         2816      
     epthwiseConv2D)                                                 
                                                                 
     pw_separable_7 (QuantizedC  (None, 8, 8, 256)         65792     
     onv2D)                                                          
                                                                 
     pw_separable_7/relu (Quant  (None, 8, 8, 256)         512       
     izedReLU)                                                       
                                                                 
     dw_separable_8 (QuantizedD  (None, 8, 8, 256)         2816      
     epthwiseConv2D)                                                 
                                                                 
     pw_separable_8 (QuantizedC  (None, 8, 8, 256)         65792     
     onv2D)                                                          
                                                                 
     pw_separable_8/relu (Quant  (None, 8, 8, 256)         512       
     izedReLU)                                                       
                                                                 
     dw_separable_9 (QuantizedD  (None, 8, 8, 256)         2816      
     epthwiseConv2D)                                                 
                                                                 
     pw_separable_9 (QuantizedC  (None, 8, 8, 256)         65792     
     onv2D)                                                          
                                                                 
     pw_separable_9/relu (Quant  (None, 8, 8, 256)         512       
     izedReLU)                                                       
                                                                 
     dw_separable_10 (Quantized  (None, 8, 8, 256)         2816      
     DepthwiseConv2D)                                                
                                                                 
     pw_separable_10 (Quantized  (None, 8, 8, 256)         65792     
     Conv2D)                                                         
                                                                 
     pw_separable_10/relu (Quan  (None, 8, 8, 256)         512       
     tizedReLU)                                                      
                                                                 
     dw_separable_11 (Quantized  (None, 8, 8, 256)         2816      
     DepthwiseConv2D)                                                
                                                                 
     pw_separable_11 (Quantized  (None, 8, 8, 256)         65792     
     Conv2D)                                                         
                                                                 
     pw_separable_11/relu (Quan  (None, 8, 8, 256)         512       
     tizedReLU)                                                      
                                                                 
     dw_separable_12 (Quantized  (None, 4, 4, 256)         2816      
     DepthwiseConv2D)                                                
                                                                 
     pw_separable_12 (Quantized  (None, 4, 4, 512)         131584    
     Conv2D)                                                         
                                                                 
     pw_separable_12/relu (Quan  (None, 4, 4, 512)         1024      
     tizedReLU)                                                      
                                                                 
     dw_separable_13 (Quantized  (None, 4, 4, 512)         5632      
     DepthwiseConv2D)                                                
                                                                 
     pw_separable_13 (Quantized  (None, 4, 4, 512)         262656    
     Conv2D)                                                         
                                                                 
     pw_separable_13/relu (Quan  (None, 4, 4, 512)         1024      
     tizedReLU)                                                      
                                                                 
     dw_sepconv_t_0 (QuantizedD  (None, 8, 8, 512)         6144      
     epthwiseConv2DTranspose)                                        
                                                                 
     pw_sepconv_t_0 (QuantizedC  (None, 8, 8, 256)         131328    
     onv2D)                                                          
                                                                 
     pw_sepconv_t_0/relu (Quant  (None, 8, 8, 256)         512       
     izedReLU)                                                       
                                                                 
     dropout (QuantizedDropout)  (None, 8, 8, 256)         0         
                                                                 
     dw_sepconv_t_1 (QuantizedD  (None, 16, 16, 256)       3072      
     epthwiseConv2DTranspose)                                        
                                                                 
     pw_sepconv_t_1 (QuantizedC  (None, 16, 16, 128)       32896     
     onv2D)                                                          
                                                                 
     pw_sepconv_t_1/relu (Quant  (None, 16, 16, 128)       256       
     izedReLU)                                                       
                                                                 
     dropout_1 (QuantizedDropou  (None, 16, 16, 128)       0         
     t)                                                              
                                                                 
     dw_sepconv_t_2 (QuantizedD  (None, 32, 32, 128)       1536      
     epthwiseConv2DTranspose)                                        
                                                                 
     pw_sepconv_t_2 (QuantizedC  (None, 32, 32, 64)        8256      
     onv2D)                                                          
                                                                 
     pw_sepconv_t_2/relu (Quant  (None, 32, 32, 64)        128       
     izedReLU)                                                       
                                                                 
     dropout_2 (QuantizedDropou  (None, 32, 32, 64)        0         
     t)                                                              
                                                                 
     dw_sepconv_t_3 (QuantizedD  (None, 64, 64, 64)        768       
     epthwiseConv2DTranspose)                                        
                                                                 
     pw_sepconv_t_3 (QuantizedC  (None, 64, 64, 32)        2080      
     onv2D)                                                          
                                                                 
     pw_sepconv_t_3/relu (Quant  (None, 64, 64, 32)        64        
     izedReLU)                                                       
                                                                 
     dropout_3 (QuantizedDropou  (None, 64, 64, 32)        0         
     t)                                                              
                                                                 
     dw_sepconv_t_4 (QuantizedD  (None, 128, 128, 32)      384       
     epthwiseConv2DTranspose)                                        
                                                                 
     pw_sepconv_t_4 (QuantizedC  (None, 128, 128, 16)      528       
     onv2D)                                                          
                                                                 
     pw_sepconv_t_4/relu (Quant  (None, 128, 128, 16)      32        
     izedReLU)                                                       
                                                                 
     dropout_4 (QuantizedDropou  (None, 128, 128, 16)      0         
     t)                                                              
                                                                 
     head (QuantizedConv2D)      (None, 128, 128, 1)       19        
                                                                 
     dequantizer (Dequantizer)   (None, 128, 128, 1)       0         
                                                                 
    =================================================================
    Total params: 1061603 (4.05 MB)
    Trainable params: 1047905 (4.00 MB)
    Non-trainable params: 13698 (53.51 KB)
    _________________________________________________________________




.. GENERATED FROM PYTHON SOURCE LINES 118-127

.. code-block:: Python
…
