…
      8192/156592 [>.............................] - ETA: 0s     81920/156592 [==============>...............] - ETA: 0s    163840/156592 [===============================] - 0s 1us/step
    Model: "mobilenet_kws"
    _________________________________________________________________
    Layer (type)                 Output Shape              Param #   
    =================================================================
    input_1 (InputLayer)         [(None, 49, 10, 1)]       0         
    _________________________________________________________________
    conv_0 (QuantizedConv2D)     (None, 25, 5, 32)         800       
    _________________________________________________________________
    conv_0_BN (BatchNormalizatio (None, 25, 5, 32)         128       
    _________________________________________________________________
    conv_0_relu (ActivationDiscr (None, 25, 5, 32)         0         
    _________________________________________________________________
    separable_1 (QuantizedSepara (None, 25, 5, 64)         2336      
    _________________________________________________________________
    separable_1_BN (BatchNormali (None, 25, 5, 64)         256       
    _________________________________________________________________
    separable_1_relu (Activation (None, 25, 5, 64)         0         
    _________________________________________________________________
    separable_2 (QuantizedSepara (None, 25, 5, 64)         4672      
    _________________________________________________________________
    separable_2_BN (BatchNormali (None, 25, 5, 64)         256       
    _________________________________________________________________
    separable_2_relu (Activation (None, 25, 5, 64)         0         
    _________________________________________________________________
    separable_3 (QuantizedSepara (None, 25, 5, 64)         4672      
    _________________________________________________________________
    separable_3_BN (BatchNormali (None, 25, 5, 64)         256       
    _________________________________________________________________
    separable_3_relu (Activation (None, 25, 5, 64)         0         
    _________________________________________________________________
    separable_4 (QuantizedSepara (None, 25, 5, 64)         4672      
    _________________________________________________________________
    separable_4_BN (BatchNormali (None, 25, 5, 64)         256       
    _________________________________________________________________
    separable_4_relu (Activation (None, 25, 5, 64)         0         
    _________________________________________________________________
    separable_5 (QuantizedSepara (None, 25, 5, 64)         4672      
    _________________________________________________________________
    separable_5_global_avg (Glob (None, 64)                0         
    _________________________________________________________________
    separable_5_BN (BatchNormali (None, 64)                256       
    _________________________________________________________________
    separable_5_relu (Activation (None, 64)                0         
    _________________________________________________________________
    reshape_1 (Reshape)          (None, 1, 1, 64)          0         
    _________________________________________________________________
    separable_6 (QuantizedSepara (None, 1, 1, 12)          1344      
    _________________________________________________________________
    act_softmax (Activation)     (None, 1, 1, 12)          0         
    _________________________________________________________________
    reshape_2 (Reshape)          (None, 12)                0         
    =================================================================
    Total params: 24,576
    Trainable params: 23,872
    Non-trainable params: 704
    _________________________________________________________________




4. Check performance
~~~~~~~~~~~~~~~~~~~~~~~~~~~~~~~~~~~~~~~~~~~~~~~~~


.. code-block:: default


    # Check Model performance
    potentials_keras = model_keras.predict(x_valid_rescaled_cnn)
…
