…
  55623680/56218264 [============================>.] - ETA: 0s    56221696/56218264 [==============================] - 2s 0us/step
    Model: "vgg_cifar10"
    _________________________________________________________________
    Layer (type)                 Output Shape              Param #   
    =================================================================
    input_2 (InputLayer)         [(None, 32, 32, 3)]       0         
    _________________________________________________________________
    conv_0 (QuantizedConv2D)     (None, 32, 32, 128)       3456      
    _________________________________________________________________
    conv_0_BN (BatchNormalizatio (None, 32, 32, 128)       512       
    _________________________________________________________________
    conv_0_relu (ActivationDiscr (None, 32, 32, 128)       0         
    _________________________________________________________________
    conv_1 (QuantizedConv2D)     (None, 32, 32, 128)       147456    
    _________________________________________________________________
    conv_1_maxpool (MaxPooling2D (None, 16, 16, 128)       0         
    _________________________________________________________________
    conv_1_BN (BatchNormalizatio (None, 16, 16, 128)       512       
    _________________________________________________________________
    conv_1_relu (ActivationDiscr (None, 16, 16, 128)       0         
    _________________________________________________________________
    conv_2 (QuantizedConv2D)     (None, 16, 16, 256)       294912    
    _________________________________________________________________
    conv_2_BN (BatchNormalizatio (None, 16, 16, 256)       1024      
    _________________________________________________________________
    conv_2_relu (ActivationDiscr (None, 16, 16, 256)       0         
    _________________________________________________________________
    conv_3 (QuantizedConv2D)     (None, 16, 16, 256)       589824    
    _________________________________________________________________
    conv_3_maxpool (MaxPooling2D (None, 8, 8, 256)         0         
    _________________________________________________________________
    conv_3_BN (BatchNormalizatio (None, 8, 8, 256)         1024      
    _________________________________________________________________
    conv_3_relu (ActivationDiscr (None, 8, 8, 256)         0         
    _________________________________________________________________
    conv_4 (QuantizedConv2D)     (None, 8, 8, 512)         1179648   
    _________________________________________________________________
    conv_4_BN (BatchNormalizatio (None, 8, 8, 512)         2048      
    _________________________________________________________________
    conv_4_relu (ActivationDiscr (None, 8, 8, 512)         0         
    _________________________________________________________________
    conv_5 (QuantizedConv2D)     (None, 8, 8, 512)         2359296   
    _________________________________________________________________
    conv_5_maxpool (MaxPooling2D (None, 4, 4, 512)         0         
    _________________________________________________________________
    conv_5_BN (BatchNormalizatio (None, 4, 4, 512)         2048      
    _________________________________________________________________
    conv_5_relu (ActivationDiscr (None, 4, 4, 512)         0         
    _________________________________________________________________
    flatten (Flatten)            (None, 8192)              0         
    _________________________________________________________________
    dense_6 (QuantizedDense)     (None, 1024)              8388608   
    _________________________________________________________________
    dense_6_BN (BatchNormalizati (None, 1024)              4096      
    _________________________________________________________________
    dense_6_relu (ActivationDisc (None, 1024)              0         
    _________________________________________________________________
    dense_7 (QuantizedDense)     (None, 1024)              1048576   
    _________________________________________________________________
    dense_7_BN (BatchNormalizati (None, 1024)              4096      
    _________________________________________________________________
    dense_7_relu (ActivationDisc (None, 1024)              0         
    _________________________________________________________________
    dense_8 (QuantizedDense)     (None, 10)                10240     
    =================================================================
    Total params: 14,037,376
    Trainable params: 14,029,696
    Non-trainable params: 7,680
    _________________________________________________________________




3.B Check performance
^^^^^^^^^^^^^^^^^^^^^

We check the Keras model accuracy on the first *n* images of the test
set.

The table below summarizes the expected results:
…
5376/10815304 [=========================>....] - ETA: 0s    10821632/10815304 [==============================] - 0s 0us/step
    Model: "mobilenet_cifar10"
    _________________________________________________________________
    Layer (type)                 Output Shape              Param #   
    =================================================================
    input_3 (InputLayer)         [(None, 32, 32, 3)]       0         
    _________________________________________________________________
    conv_0 (QuantizedConv2D)     (None, 32, 32, 128)       3456      
    _________________________________________________________________
    conv_0_BN (BatchNormalizatio (None, 32, 32, 128)       512       
    _________________________________________________________________
    conv_0_relu (ActivationDiscr (None, 32, 32, 128)       0         
    _________________________________________________________________
    separable_1 (QuantizedSepara (None, 32, 32, 128)       17536     
    _________________________________________________________________
    separable_1_BN (BatchNormali (None, 32, 32, 128)       512       
    _________________________________________________________________
    separable_1_relu (Activation (None, 32, 32, 128)       0         
    _________________________________________________________________
    separable_2 (QuantizedSepara (None, 32, 32, 256)       33920     
    _________________________________________________________________
    separable_2_BN (BatchNormali (None, 32, 32, 256)       1024      
    _________________________________________________________________
    separable_2_relu (Activation (None, 32, 32, 256)       0         
    _________________________________________________________________
    separable_3 (QuantizedSepara (None, 32, 32, 256)       67840     
    _________________________________________________________________
    separable_3_maxpool (MaxPool (None, 16, 16, 256)       0         
    _________________________________________________________________
    separable_3_BN (BatchNormali (None, 16, 16, 256)       1024      
    _________________________________________________________________
    separable_3_relu (Activation (None, 16, 16, 256)       0         
    _________________________________________________________________
    separable_4 (QuantizedSepara (None, 16, 16, 512)       133376    
    _________________________________________________________________
    separable_4_BN (BatchNormali (None, 16, 16, 512)       2048      
    _________________________________________________________________
    separable_4_relu (Activation (None, 16, 16, 512)       0         
    _________________________________________________________________
    separable_5 (QuantizedSepara (None, 16, 16, 512)       266752    
    _________________________________________________________________
    separable_5_maxpool (MaxPool (None, 8, 8, 512)         0         
    _________________________________________________________________
    separable_5_BN (BatchNormali (None, 8, 8, 512)         2048      
    _________________________________________________________________
    separable_5_relu (Activation (None, 8, 8, 512)         0         
    _________________________________________________________________
    separable_6 (QuantizedSepara (None, 8, 8, 512)         266752    
    _________________________________________________________________
    separable_6_BN (BatchNormali (None, 8, 8, 512)         2048      
    _________________________________________________________________
    separable_6_relu (Activation (None, 8, 8, 512)         0         
    _________________________________________________________________
    separable_7 (QuantizedSepara (None, 8, 8, 512)         266752    
    _________________________________________________________________
    separable_7_maxpool (MaxPool (None, 4, 4, 512)         0         
    _________________________________________________________________
    separable_7_BN (BatchNormali (None, 4, 4, 512)         2048      
    _________________________________________________________________
    separable_7_relu (Activation (None, 4, 4, 512)         0         
    _________________________________________________________________
    separable_8 (QuantizedSepara (None, 4, 4, 1024)        528896    
    _________________________________________________________________
    separable_8_BN (BatchNormali (None, 4, 4, 1024)        4096      
    _________________________________________________________________
    separable_8_relu (Activation (None, 4, 4, 1024)        0         
    _________________________________________________________________
    separable_9 (QuantizedSepara (None, 4, 4, 1024)        1057792   
    _________________________________________________________________
    separable_9_BN (BatchNormali (None, 4, 4, 1024)        4096      
    _________________________________________________________________
    separable_9_relu (Activation (None, 4, 4, 1024)        0         
    _________________________________________________________________
    separable_10 (QuantizedSepar (None, 4, 4, 10)          19456     
    _________________________________________________________________
    separable_10_global_avg (Glo (None, 10)                0         
    =================================================================
    Total params: 2,681,984
    Trainable params: 2,672,256
    Non-trainable params: 9,728
    _________________________________________________________________




5.B Check performance
^^^^^^^^^^^^^^^^^^^^^

We check the Keras model accuracy on the first *n* images of the test
set.

The table below summarizes the expected results:
…
