…
[=========================>....] - ETA: 0s    17096704/17090328 [==============================] - 1s 0us/step
    ...done.
    Model: "mobilenet_1.00_224"
    _________________________________________________________________
    Layer (type)                 Output Shape              Param #   
    =================================================================
    input_5 (InputLayer)         [(None, 224, 224, 3)]     0         
    _________________________________________________________________
    conv_0 (QuantizedConv2D)     (None, 112, 112, 32)      864       
    _________________________________________________________________
    conv_0_BN (BatchNormalizatio (None, 112, 112, 32)      128       
    _________________________________________________________________
    conv_0_relu (ActivationDiscr (None, 112, 112, 32)      0         
    _________________________________________________________________
    separable_1 (QuantizedSepara (None, 112, 112, 64)      2336      
    _________________________________________________________________
    separable_1_BN (BatchNormali (None, 112, 112, 64)      256       
    _________________________________________________________________
    separable_1_relu (Activation (None, 112, 112, 64)      0         
    _________________________________________________________________
    separable_2 (QuantizedSepara (None, 112, 112, 128)     8768      
    _________________________________________________________________
    separable_2_maxpool (MaxPool (None, 56, 56, 128)       0         
    _________________________________________________________________
    separable_2_BN (BatchNormali (None, 56, 56, 128)       512       
    _________________________________________________________________
    separable_2_relu (Activation (None, 56, 56, 128)       0         
    _________________________________________________________________
    separable_3 (QuantizedSepara (None, 56, 56, 128)       17536     
    _________________________________________________________________
    separable_3_BN (BatchNormali (None, 56, 56, 128)       512       
    _________________________________________________________________
    separable_3_relu (Activation (None, 56, 56, 128)       0         
    _________________________________________________________________
    separable_4 (QuantizedSepara (None, 56, 56, 256)       33920     
    _________________________________________________________________
    separable_4_maxpool (MaxPool (None, 28, 28, 256)       0         
    _________________________________________________________________
    separable_4_BN (BatchNormali (None, 28, 28, 256)       1024      
    _________________________________________________________________
    separable_4_relu (Activation (None, 28, 28, 256)       0         
    _________________________________________________________________
    separable_5 (QuantizedSepara (None, 28, 28, 256)       67840     
    _________________________________________________________________
    separable_5_BN (BatchNormali (None, 28, 28, 256)       1024      
    _________________________________________________________________
    separable_5_relu (Activation (None, 28, 28, 256)       0         
    _________________________________________________________________
    separable_6 (QuantizedSepara (None, 28, 28, 512)       133376    
    _________________________________________________________________
    separable_6_maxpool (MaxPool (None, 14, 14, 512)       0         
    _________________________________________________________________
    separable_6_BN (BatchNormali (None, 14, 14, 512)       2048      
    _________________________________________________________________
    separable_6_relu (Activation (None, 14, 14, 512)       0         
    _________________________________________________________________
    separable_7 (QuantizedSepara (None, 14, 14, 512)       266752    
    _________________________________________________________________
    separable_7_BN (BatchNormali (None, 14, 14, 512)       2048      
    _________________________________________________________________
    separable_7_relu (Activation (None, 14, 14, 512)       0         
    _________________________________________________________________
    separable_8 (QuantizedSepara (None, 14, 14, 512)       266752    
    _________________________________________________________________
    separable_8_BN (BatchNormali (None, 14, 14, 512)       2048      
    _________________________________________________________________
    separable_8_relu (Activation (None, 14, 14, 512)       0         
    _________________________________________________________________
    separable_9 (QuantizedSepara (None, 14, 14, 512)       266752    
    _________________________________________________________________
    separable_9_BN (BatchNormali (None, 14, 14, 512)       2048      
    _________________________________________________________________
    separable_9_relu (Activation (None, 14, 14, 512)       0         
    _________________________________________________________________
    separable_10 (QuantizedSepar (None, 14, 14, 512)       266752    
    _________________________________________________________________
    separable_10_BN (BatchNormal (None, 14, 14, 512)       2048      
    _________________________________________________________________
    separable_10_relu (Activatio (None, 14, 14, 512)       0         
    _________________________________________________________________
    separable_11 (QuantizedSepar (None, 14, 14, 512)       266752    
    _________________________________________________________________
    separable_11_BN (BatchNormal (None, 14, 14, 512)       2048      
    _________________________________________________________________
    separable_11_relu (Activatio (None, 14, 14, 512)       0         
    _________________________________________________________________
    separable_12 (QuantizedSepar (None, 14, 14, 1024)      528896    
    _________________________________________________________________
    separable_12_maxpool (MaxPoo (None, 7, 7, 1024)        0         
    _________________________________________________________________
    separable_12_BN (BatchNormal (None, 7, 7, 1024)        4096      
    _________________________________________________________________
    separable_12_relu (Activatio (None, 7, 7, 1024)        0         
    _________________________________________________________________
    separable_13 (QuantizedSepar (None, 7, 7, 1024)        1057792   
    _________________________________________________________________
    separable_13_global_avg (Glo (None, 1024)              0         
    _________________________________________________________________
    separable_13_BN (BatchNormal (None, 1024)              4096      
    _________________________________________________________________
    separable_13_relu (Activatio (None, 1024)              0         
    _________________________________________________________________
    reshape_1 (Reshape)          (None, 1, 1, 1024)        0         
    _________________________________________________________________
    dropout (Dropout)            (None, 1, 1, 1024)        0         
    _________________________________________________________________
    separable_14 (QuantizedSepar (None, 1, 1, 1000)        1033216   
    _________________________________________________________________
    act_softmax (Activation)     (None, 1, 1, 1000)        0         
    _________________________________________________________________
    reshape_2 (Reshape)          (None, 1000)              0         
    =================================================================
    Total params: 4,242,240
    Trainable params: 4,230,272
    Non-trainable params: 11,968
    _________________________________________________________________




3.2 Check performance of the Keras model
^^^^^^^^^^^^^^^^^^^^^^^^^^^^^^^^^^^^^^^^



.. code-block:: default


    print(f'Predicting with Keras model on {num_images} images ...')
…
