…
    model_keras = tf.keras.Model(inputs=base_model_keras.input, outputs=preds, name="model_cats_vs_dogs")

    model_keras.summary()





.. rst-class:: sphx-glr-script-out

 Out:

 .. code-block:: none

    Model: "model_cats_vs_dogs"
    _________________________________________________________________
    Layer (type)                 Output Shape              Param #   
    =================================================================
    input_4 (InputLayer)         [(None, 160, 160, 3)]     0         
    _________________________________________________________________
    conv_0 (QuantizedConv2D)     (None, 80, 80, 32)        864       
    _________________________________________________________________
    conv_0_BN (BatchNormalizatio (None, 80, 80, 32)        128       
    _________________________________________________________________
    conv_0_relu (ActivationDiscr (None, 80, 80, 32)        0         
    _________________________________________________________________
    separable_1 (QuantizedSepara (None, 80, 80, 64)        2336      
    _________________________________________________________________
    separable_1_BN (BatchNormali (None, 80, 80, 64)        256       
    _________________________________________________________________
    separable_1_relu (Activation (None, 80, 80, 64)        0         
    _________________________________________________________________
    separable_2 (QuantizedSepara (None, 80, 80, 128)       8768      
    _________________________________________________________________
    separable_2_maxpool (MaxPool (None, 40, 40, 128)       0         
    _________________________________________________________________
    separable_2_BN (BatchNormali (None, 40, 40, 128)       512       
    _________________________________________________________________
    separable_2_relu (Activation (None, 40, 40, 128)       0         
    _________________________________________________________________
    separable_3 (QuantizedSepara (None, 40, 40, 128)       17536     
    _________________________________________________________________
    separable_3_BN (BatchNormali (None, 40, 40, 128)       512       
    _________________________________________________________________
    separable_3_relu (Activation (None, 40, 40, 128)       0         
    _________________________________________________________________
    separable_4 (QuantizedSepara (None, 40, 40, 256)       33920     
    _________________________________________________________________
    separable_4_maxpool (MaxPool (None, 20, 20, 256)       0         
    _________________________________________________________________
    separable_4_BN (BatchNormali (None, 20, 20, 256)       1024      
    _________________________________________________________________
    separable_4_relu (Activation (None, 20, 20, 256)       0         
    _________________________________________________________________
    separable_5 (QuantizedSepara (None, 20, 20, 256)       67840     
    _________________________________________________________________
    separable_5_BN (BatchNormali (None, 20, 20, 256)       1024      
    _________________________________________________________________
    separable_5_relu (Activation (None, 20, 20, 256)       0         
    _________________________________________________________________
    separable_6 (QuantizedSepara (None, 20, 20, 512)       133376    
    _________________________________________________________________
    separable_6_maxpool (MaxPool (None, 10, 10, 512)       0         
    _________________________________________________________________
    separable_6_BN (BatchNormali (None, 10, 10, 512)       2048      
    _________________________________________________________________
    separable_6_relu (Activation (None, 10, 10, 512)       0         
    _________________________________________________________________
    separable_7 (QuantizedSepara (None, 10, 10, 512)       266752    
    _________________________________________________________________
    separable_7_BN (BatchNormali (None, 10, 10, 512)       2048      
    _________________________________________________________________
    separable_7_relu (Activation (None, 10, 10, 512)       0         
    _________________________________________________________________
    separable_8 (QuantizedSepara (None, 10, 10, 512)       266752    
    _________________________________________________________________
    separable_8_BN (BatchNormali (None, 10, 10, 512)       2048      
    _________________________________________________________________
    separable_8_relu (Activation (None, 10, 10, 512)       0         
    _________________________________________________________________
    separable_9 (QuantizedSepara (None, 10, 10, 512)       266752    
    _________________________________________________________________
    separable_9_BN (BatchNormali (None, 10, 10, 512)       2048      
    _________________________________________________________________
    separable_9_relu (Activation (None, 10, 10, 512)       0         
    _________________________________________________________________
    separable_10 (QuantizedSepar (None, 10, 10, 512)       266752    
    _________________________________________________________________
    separable_10_BN (BatchNormal (None, 10, 10, 512)       2048      
    _________________________________________________________________
    separable_10_relu (Activatio (None, 10, 10, 512)       0         
    _________________________________________________________________
    separable_11 (QuantizedSepar (None, 10, 10, 512)       266752    
    _________________________________________________________________
    separable_11_BN (BatchNormal (None, 10, 10, 512)       2048      
    _________________________________________________________________
    separable_11_relu (Activatio (None, 10, 10, 512)       0         
    _________________________________________________________________
    separable_12 (QuantizedSepar (None, 10, 10, 1024)      528896    
    _________________________________________________________________
    separable_12_maxpool (MaxPoo (None, 5, 5, 1024)        0         
    _________________________________________________________________
    separable_12_BN (BatchNormal (None, 5, 5, 1024)        4096      
    _________________________________________________________________
    separable_12_relu (Activatio (None, 5, 5, 1024)        0         
    _________________________________________________________________
    separable_13 (QuantizedSepar (None, 5, 5, 1024)        1057792   
    _________________________________________________________________
    separable_13_global_avg (Glo (None, 1024)              0         
    _________________________________________________________________
    separable_13_BN (BatchNormal (None, 1024)              4096      
    _________________________________________________________________
    separable_13_relu (Activatio (None, 1024)              0         
    _________________________________________________________________
    reshape_1 (Reshape)          (None, 1, 1, 1024)        0         
    _________________________________________________________________
    top_layer_separable (Quantiz (None, 1, 1, 1)           10240     
    _________________________________________________________________
    activation (Activation)      (None, 1, 1, 1)           0         
    _________________________________________________________________
    reshape_2 (Reshape)          (None, 1)                 0         
    =================================================================
    Total params: 3,219,264
    Trainable params: 3,207,296
    Non-trainable params: 11,968
    _________________________________________________________________





.. code-block:: default


    # Load pre-trained weights
    pretrained_weights = tf.keras.utils.get_file("mobilenet_cats_vs_dogs_wq4_aq4.h5",
                                                 "http://data.brainchip.com/models/mobilenet/mobilenet_cats_vs_dogs_wq4_aq4.h5",
…
