…
==============] - 1s 991us/step




.. GENERATED FROM PYTHON SOURCE LINES 120-123

.. code-block:: Python


    quantized_model.summary()





.. rst-class:: sphx-glr-script-out

 .. code-block:: none

    Model: "model"
    _________________________________________________________________
     Layer (type)                Output Shape              Param #   
    =================================================================
     input_1 (InputLayer)        [(None, 28, 28, 3)]       0         
                                                                 
     rescale (QuantizedRescalin  (None, 28, 28, 3)         0         
     g)                                                              
                                                                 
     input_conv (QuantizedConv2  (None, 26, 26, 16)        450       
     D)                                                              
                                                                 
     dw_conv (QuantizedDepthwis  (None, 24, 24, 16)        162       
     eConv2D)                                                        
                                                                 
     pw_conv (QuantizedConv2D)   (None, 24, 24, 32)        544       
                                                                 
     relu (QuantizedReLU)        (None, 24, 24, 32)        2         
                                                                 
     dense (QuantizedDense)      (None, 24, 24, 10)        330       
                                                                 
     dequantizer (Dequantizer)   (None, 24, 24, 10)        0         
                                                                 
    =================================================================
    Total params: 1488 (5.81 KB)
    Trainable params: 1482 (5.79 KB)
    Non-trainable params: 6 (24.00 Byte)
    _________________________________________________________________




.. GENERATED FROM PYTHON SOURCE LINES 124-131

.. code-block:: Python
…
As the model Input Layer is not typed (defaulting to float32), an InputQuantizer layer has been
added in second position:

.. GENERATED FROM PYTHON SOURCE LINES 337-340

.. code-block:: Python


    quantized_model.summary()





.. rst-class:: sphx-glr-script-out

 .. code-block:: none

    Model: "model_1"
    _________________________________________________________________
     Layer (type)                Output Shape              Param #   
    =================================================================
     input_2 (InputLayer)        [(None, 28, 28, 3)]       0         
                                                                 
     input_quantizer (InputQuan  (None, 28, 28, 3)         6         
     tizer)                                                          
                                                                 
     rescale (QuantizedRescalin  (None, 28, 28, 3)         0         
     g)                                                              
                                                                 
     input_conv (QuantizedConv2  (None, 14, 14, 16)        448       
     D)                                                              
                                                                 
     relu_0 (QuantizedReLU)      (None, 14, 14, 16)        32        
                                                                 
     dw_conv (QuantizedDepthwis  (None, 7, 7, 16)          192       
     eConv2D)                                                        
                                                                 
     pw_conv (QuantizedConv2D)   (None, 7, 7, 32)          544       
                                                                 
     relu_1 (QuantizedReLU)      (None, 7, 7, 32)          64        
                                                                 
     flatten (QuantizedFlatten)  (None, 1568)              0         
                                                                 
     dense (QuantizedDense)      (None, 10)                15690     
                                                                 
     dequantizer_2 (Dequantizer  (None, 10)                0         
     )                                                               
                                                                 
    =================================================================
    Total params: 16976 (66.31 KB)
    Trainable params: 16842 (65.79 KB)
    Non-trainable params: 134 (536.00 Byte)
    _________________________________________________________________
…
Take a look at the InputQuantizer:

.. GENERATED FROM PYTHON SOURCE LINES 397-400

.. code-block:: Python


    quantized_model.summary()





.. rst-class:: sphx-glr-script-out

 .. code-block:: none

    Model: "model_2"
    _________________________________________________________________
     Layer (type)                Output Shape              Param #   
    =================================================================
     input_3 (InputLayer)        [(None, 10, 25, 2)]       0         
                                                                 
     input_quantizer_1 (InputQu  (None, 10, 25, 2)         4         
     antizer)                                                        
                                                                 
     input_conv (QuantizedConv2  (None, 5, 13, 16)         304       
     D)                                                              
                                                                 
     relu_0 (QuantizedReLU)      (None, 5, 13, 16)         32        
                                                                 
     dw_conv (QuantizedDepthwis  (None, 3, 7, 16)          192       
     eConv2D)                                                        
                                                                 
     pw_conv (QuantizedConv2D)   (None, 3, 7, 32)          544       
                                                                 
     relu_1 (QuantizedReLU)      (None, 3, 7, 32)          64        
                                                                 
     flatten_1 (QuantizedFlatte  (None, 672)               0         
     n)                                                              
                                                                 
     dense (QuantizedDense)      (None, 10)                6730      
                                                                 
     dequantizer_3 (Dequantizer  (None, 10)                0         
     )                                                               
                                                                 
    =================================================================
    Total params: 7870 (30.74 KB)
    Trainable params: 7738 (30.23 KB)
    Non-trainable params: 132 (528.00 Byte)
    _________________________________________________________________
…
.. rst-class:: sphx-glr-script-out

 .. code-block:: none

    1/4 [======>.......................] - ETA: 0s    4/4 [==============================] - 0s 1ms/step
    Model: "model_3"
    _________________________________________________________________
     Layer (type)                Output Shape              Param #   
    =================================================================
     input_4 (InputLayer)        [(None, 28, 28, 3)]       0         
                                                                 
     rescale (QuantizedRescalin  (None, 28, 28, 3)         0         
     g)                                                              
                                                                 
     input_conv (QuantizedConv2  (None, 14, 14, 16)        448       
     D)                                                              
                                                                 
     relu_0 (QuantizedReLU)      (None, 14, 14, 16)        32        
                                                                 
     dw_conv (QuantizedDepthwis  (None, 7, 7, 16)          192       
     eConv2D)                                                        
                                                                 
     pw_conv (QuantizedConv2D)   (None, 7, 7, 32)          544       
                                                                 
     relu_1 (QuantizedReLU)      (None, 7, 7, 32)          64        
                                                                 
     flatten_2 (QuantizedFlatte  (None, 1568)              0         
     n)                                                              
                                                                 
     dense (QuantizedDense)      (None, 10)                15690     
                                                                 
     dequantizer_4 (Dequantizer  (None, 10)                0         
     )                                                               
                                                                 
    =================================================================
    Total params: 16970 (66.29 KB)
    Trainable params: 16842 (65.79 KB)
    Non-trainable params: 128 (512.00 Byte)
    _________________________________________________________________
…
