…
            return self.head((self.backbone(input)))


    model = TennSt(channels, t_kernel_size, s_kernel_size, n_depthwise_layers)
    summary(model, input_size=(1, 2, 50, 96, 128), depth=4, verbose=0)





.. rst-class:: sphx-glr-script-out

 .. code-block:: none


    ====================================================================================================
    Layer (type:depth-idx)                             Output Shape              Param #
    ====================================================================================================
    TennSt                                             [1, 3, 50, 3, 4]          --
    ├─Sequential: 1-1                                  [1, 256, 50, 3, 4]        --
    │    └─SpatioTemporalBlock: 2-1                    [1, 16, 50, 48, 64]       --
    │    │    └─Sequential: 3-1                        [1, 16, 50, 48, 64]       --
    │    │    │    └─TemporalBlock: 4-1                [1, 8, 50, 96, 128]       96
    │    │    │    └─SpatialBlock: 4-2                 [1, 16, 50, 48, 64]       1,184
    │    └─SpatioTemporalBlock: 2-2                    [1, 48, 50, 24, 32]       --
    │    │    └─Sequential: 3-2                        [1, 48, 50, 24, 32]       --
    │    │    │    └─TemporalBlock: 4-3                [1, 32, 50, 48, 64]       2,624
    │    │    │    └─SpatialBlock: 4-4                 [1, 48, 50, 24, 32]       13,920
    │    └─SpatioTemporalBlock: 2-3                    [1, 80, 50, 12, 16]       --
    │    │    └─Sequential: 3-3                        [1, 80, 50, 12, 16]       --
    │    │    │    └─TemporalBlock: 4-5                [1, 64, 50, 24, 32]       15,488
    │    │    │    └─SpatialBlock: 4-6                 [1, 80, 50, 12, 16]       46,240
    │    └─SpatioTemporalBlock: 2-4                    [1, 112, 50, 6, 8]        --
    │    │    └─Sequential: 3-4                        [1, 112, 50, 6, 8]        --
    │    │    │    └─TemporalBlock: 4-7                [1, 96, 50, 12, 16]       8,432
    │    │    │    └─SpatialBlock: 4-8                 [1, 112, 50, 6, 8]        12,032
    │    └─SpatioTemporalBlock: 2-5                    [1, 256, 50, 3, 4]        --
    │    │    └─Sequential: 3-5                        [1, 256, 50, 3, 4]        --
    │    │    │    └─TemporalBlock: 4-9                [1, 128, 50, 6, 8]        15,376
    │    │    │    └─SpatialBlock: 4-10                [1, 256, 50, 3, 4]        34,688
    ├─Sequential: 1-2                                  [1, 3, 50, 3, 4]          --
    │    └─SpatioTemporalBlock: 2-6                    [1, 256, 50, 3, 4]        --
    │    │    └─Sequential: 3-6                        [1, 256, 50, 3, 4]        --
    │    │    │    └─TemporalBlock: 4-11               [1, 256, 50, 3, 4]        328,448
    │    │    │    └─SpatialBlock: 4-12                [1, 256, 50, 3, 4]        590,592
    │    └─Conv3d: 2-7                                 [1, 3, 50, 3, 4]          771
    ====================================================================================================
    Total params: 1,069,891
    Trainable params: 1,069,891
    Non-trainable params: 0
    Total mult-adds (Units.GIGABYTES): 2.90
    ====================================================================================================
    Input size (MB): 4.92
    Forward/backward pass size (MB): 330.56
…
