…
         0/134616 [..............................] - ETA: 0s    134616/134616 [==============================] - 0s 0us/step
    Download complete.




.. GENERATED FROM PYTHON SOURCE LINES 235-238

.. code-block:: Python


    model.summary()





.. rst-class:: sphx-glr-script-out

 .. code-block:: none

    Model: "sequential_1"
    _________________________________________________________________
     Layer (type)                Output Shape              Param #   
    =================================================================
     rescaling (Rescaling)       (None, 49, 10, 1)         0         
                                                                 
     conv_0 (QuantizedConv2D)    (None, 25, 5, 64)         1664      
                                                                 
     conv_0/relu (QuantizedReLU  (None, 25, 5, 64)         0         
     )                                                               
                                                                 
     separable_1 (QuantizedSepa  (None, 25, 5, 64)         4736      
     rableConv2D)                                                    
                                                                 
     separable_1/relu (Quantize  (None, 25, 5, 64)         0         
     dReLU)                                                          
                                                                 
     separable_2 (QuantizedSepa  (None, 25, 5, 64)         4736      
     rableConv2D)                                                    
                                                                 
     separable_2/relu (Quantize  (None, 25, 5, 64)         0         
     dReLU)                                                          
                                                                 
     separable_3 (QuantizedSepa  (None, 25, 5, 64)         4736      
     rableConv2D)                                                    
                                                                 
     separable_3/relu (Quantize  (None, 25, 5, 64)         0         
     dReLU)                                                          
                                                                 
     separable_4 (QuantizedSepa  (None, 25, 5, 64)         4736      
     rableConv2D)                                                    
                                                                 
     separable_4/global_avg (Gl  (None, 64)                0         
     obalAveragePooling2D)                                           
                                                                 
     separable_4/relu (Quantize  (None, 64)                0         
     dReLU)                                                          
                                                                 
     reshape_1 (Reshape)         (None, 1, 1, 64)          0         
                                                                 
     flatten (Flatten)           (None, 64)                0         
                                                                 
     dense_5 (QuantizedDense)    (None, 33)                2145      
                                                                 
     act_softmax (Activation)    (None, 33)                0         
                                                                 
    =================================================================
    Total params: 22753 (88.88 KB)
    Trainable params: 22753 (88.88 KB)
    Non-trainable params: 0 (0.00 Byte)
    _________________________________________________________________




.. GENERATED FROM PYTHON SOURCE LINES 239-250

.. code-block:: Python


    import numpy as np

    from math import ceil

    from cnn2snn import convert

    #  Convert to an Akida model
    model_ak = convert(model)
    model_ak.summary()





.. rst-class:: sphx-glr-script-out

 .. code-block:: none

                    Model Summary                 
    ______________________________________________
    Input shape  Output shape  Sequences  Layers
    ==============================================
    [49, 10, 1]  [1, 1, 33]    1          6     
    ______________________________________________

    _______________________________________________________
    Layer (type)             Output shape  Kernel shape  

    ============= SW/conv_0-dense_5 (Software) ============

    conv_0 (InputConv.)      [25, 5, 64]   (5, 5, 1, 64) 
    _______________________________________________________
    separable_1 (Sep.Conv.)  [25, 5, 64]   (3, 3, 64, 1) 
…
